Using TensorFlow backend.
_________________________________________________________________
Layer (type)                 Output Shape              Param #   
=================================================================
lstm_1 (LSTM)                (None, 16, 64)            16896     
_________________________________________________________________
lstm_2 (LSTM)                (None, 16, 64)            33024     
_________________________________________________________________
dropout_1 (Dropout)          (None, 16, 64)            0         
_________________________________________________________________
lstm_3 (LSTM)                (None, 64)                33024     
_________________________________________________________________
dense_1 (Dense)              (None, 256)               16640     
_________________________________________________________________
dense_2 (Dense)              (None, 628)               161396    
=================================================================
Total params: 260,980
Trainable params: 260,980
Non-trainable params: 0
_________________________________________________________________
Epoch 1/10
2017-08-18 17:04:49.500602: W c:\l\tensorflow_1501918863922\work\tensorflow-1.2.1\tensorflow\core\platform\cpu_feature_guard.cc:45] The TensorFlow library wasn't compiled to use SSE instructions, but these are available on your machine and could speed up CPU computations.
…
